…
Give saveModel folder a custom name? (1 == yes)
Super Path:  savedModels/ACTOR_CRITIC_TYPE="CACLA"&CACLA_VAR_ENABLED=True/
Path:  savedModels/ACTOR_CRITIC_TYPE="CACLA"&CACLA_VAR_ENABLED=True/$Jul-13_02:32:10:076682$/
Created new path: savedModels/ACTOR_CRITIC_TYPE="CACLA"&CACLA_VAR_ENABLED=True/$Jul-13_02:32:10:076682$/
ACTOR_CRITIC_TYPE
CACLA_VAR_ENABLED
Do you want to train the network?: (1 == yes)
MU(S) summary:
_________________________________________________________________
Layer (type)                 Output Shape              Param #   
=================================================================
input_1 (InputLayer)         (None, 123)               0         
_________________________________________________________________
dense_1 (Dense)              (None, 100)               12400     
_________________________________________________________________
dense_2 (Dense)              (None, 100)               10100     
_________________________________________________________________
dense_3 (Dense)              (None, 100)               10100     
_________________________________________________________________
dense_4 (Dense)              (None, 2)                 202       
=================================================================
Total params: 32,802
Trainable params: 32,802
Non-trainable params: 0
_________________________________________________________________
V(S) summary:
_________________________________________________________________
Layer (type)                 Output Shape              Param #   
=================================================================
input_2 (InputLayer)         (None, 123)               0         
_________________________________________________________________
dense_5 (Dense)              (None, 250)               31000     
_________________________________________________________________
dense_6 (Dense)              (None, 250)               62750     
_________________________________________________________________
dense_7 (Dense)              (None, 250)               62750     
_________________________________________________________________
dense_8 (Dense)              (None, 1)                 251       
=================================================================
Total params: 156,751
Trainable params: 156,751
Non-trainable params: 0
_________________________________________________________________
Initializing model...
Simulation:
Start datetime - Jul-13_02:32:10
Running for - 0:00:02.367380
steps - 0
number of rl bots - 1
number of greedy bots - 0
Virus Enabled - False
Reset every x steps - 20000
…
