…
Created new path: savedModels/NUM_NN_BOTS=2&FRAME_SKIP_RATE=12&DISCOUNT=0_8&GRADIENT_CLIP_NORM=5/$Jul-13_19:33:56:681332$/
NUM_NN_BOTS
FRAME_SKIP_RATE
DISCOUNT
GRADIENT_CLIP_NORM
Do you want to train the network?: (1 == yes)
2018-07-13 19:33:57.336233: I tensorflow/core/platform/cpu_feature_guard.cc:137] Your CPU supports instructions that this TensorFlow binary was not compiled to use: SSE4.1 SSE4.2 AVX AVX2 FMA
MU(S) summary:
_________________________________________________________________
Layer (type)                 Output Shape              Param #   
=================================================================
input_1 (InputLayer)         (None, 365)               0         
_________________________________________________________________
dense_1 (Dense)              (None, 100)               36600     
_________________________________________________________________
dense_2 (Dense)              (None, 100)               10100     
_________________________________________________________________
dense_3 (Dense)              (None, 100)               10100     
_________________________________________________________________
dense_4 (Dense)              (None, 2)                 202       
=================================================================
Total params: 57,002
Trainable params: 57,002
Non-trainable params: 0
_________________________________________________________________
V(S) summary:
_________________________________________________________________
Layer (type)                 Output Shape              Param #   
=================================================================
input_2 (InputLayer)         (None, 365)               0         
_________________________________________________________________
dense_5 (Dense)              (None, 250)               91500     
_________________________________________________________________
dense_6 (Dense)              (None, 250)               62750     
_________________________________________________________________
dense_7 (Dense)              (None, 250)               62750     
_________________________________________________________________
dense_8 (Dense)              (None, 1)                 251       
=================================================================
Total params: 217,251
Trainable params: 217,251
Non-trainable params: 0
_________________________________________________________________
MU(S) summary:
_________________________________________________________________
Layer (type)                 Output Shape              Param #   
=================================================================
input_1 (InputLayer)         (None, 365)               0         
_________________________________________________________________
dense_1 (Dense)              (None, 100)               36600     
_________________________________________________________________
dense_2 (Dense)              (None, 100)               10100     
_________________________________________________________________
dense_3 (Dense)              (None, 100)               10100     
_________________________________________________________________
dense_4 (Dense)              (None, 2)                 202       
=================================================================
Total params: 57,002
Trainable params: 57,002
Non-trainable params: 0
_________________________________________________________________
V(S) summary:
_________________________________________________________________
Layer (type)                 Output Shape              Param #   
=================================================================
input_2 (InputLayer)         (None, 365)               0         
_________________________________________________________________
dense_5 (Dense)              (None, 250)               91500     
_________________________________________________________________
dense_6 (Dense)              (None, 250)               62750     
_________________________________________________________________
dense_7 (Dense)              (None, 250)               62750     
_________________________________________________________________
dense_8 (Dense)              (None, 1)                 251       
=================================================================
Total params: 217,251
Trainable params: 217,251
Non-trainable params: 0
_________________________________________________________________
Initializing model...
Simulation:
Start datetime - Jul-13_19:33:56
Running for - 0:00:01.199899
steps - 0
number of rl bots - 2
number of greedy bots - 0
Virus Enabled - False
Reset every x steps - 20000
…
